scripts/sim2sim_transfer/exported/policy.onnx (onnx, 768789 bytes, 8 tensors)

actor.0.weight f4 [512, 50]
-0.028987655 0.115194455 0.23730087 0.10811236 0.46810526 -0.07355286 -0.14127034 0.23793182
0.14405768 0.27460632 -0.2536203 0.5207165 0.075666405 -0.4126984 -0.20950408 -0.385204
0.66457486 -0.27952543 0.3287318 0.3422099 -0.04230088 0.7341501 0.004415747 -0.0030087978
0.02701001 0.0236627 -0.07114554 -0.0015303384 0.050390825 -0.065105565 0.04158852 -0.037585575
0.0277287 -0.057209697 0.016477726 0.024385985 -0.08511138 -0.008996114 -0.087916546 0.10862302
0.007209138 0.067009814 -0.19064407 0.19322543 -0.16521974 -0.02643477 0.007900713 -0.06384073
0.02232317 -0.15425771 0.115731716 -0.0775488 -0.2992128 0.10475353 0.6099347 -0.017385375
0.12811227 -0.045535564 0.34372205 -0.44731605 -0.22000372 -0.34940693 0.20634526 -0.16723149
-0.2120696 0.31609163 0.14050688 0.39535412 -0.13392386 0.18207853 -0.04376796 -0.03242073
0.07287361 0.11637873 -0.048315704 -0.043998327 -0.021796715 0.018790558 -0.04986973 -0.001789838
-0.018207638 0.03892596 0.053255416 -0.012345955 0.094839334 -0.16574527 -0.1363886 -0.096256584
0.06338819 0.093211986 0.021127822 -0.0867823 -0.018487047 0.26230335 -0.077899426 0.10650157
0.06423084 -0.03219343 -0.046956837 -0.06711901 0.0056631393 0.07891677 -0.079036735 0.038082387
0.50114614 0.13105339 0.55590576 0.039379373 0.051869888 0.58074826 0.13047217 -0.107849136
0.04789791 0.23584801 0.2869805 0.08047825 -0.46699926 0.43724707 0.35665473 -0.17166512
0.109354034 -0.14218533 -0.036735263 0.023299966 0.045336813 -0.08623378 0.051712018 0.022509856
0.047228627 0.0131571 -0.015589198 0.03329521 0.07713669 -0.0994663 0.08775001 -0.018445602
0.08022343 0.34417772 0.09987746 -0.23409212 0.005647265 -0.069198966 0.061486125 -0.043940403
-0.22304639 0.0012747577 0.15987657 -0.037962668 -0.07231756 0.11061584 0.045389198 -0.07839604
0.12014164 0.18897797 0.29892212 0.12226971 0.11154881 0.38572404 0.0002101583 -0.29533842
-0.60057807 -0.1905428 0.8151216 -0.33600903 0.7864206 -0.9139672 0.53284156 -0.0797361
-0.6955302 -0.4765647 0.35518146 0.03265159 0.012081029 -0.015115865 -0.021911733 0.043810707
-0.056689903 -0.006613617 0.05949407 0.023365296 -0.019077038 -0.040349424 -0.006408387 0.021629965
0.15199605 -0.03366981 0.1255572 -0.021203855 -0.06872888 -0.014683376 -0.10384518 0.040468242
0.37581167 -0.0061699455 -0.024087457 0.13345413 0.2636255 0.020263271 -0.020638892 0.039686695
-0.071474805 0.081443146 0.010087047 -0.066611856 -0.47066465 0.16534826 -0.13440211 0.2729904
-0.13306925 -0.48518503 0.4630141 -0.1541648 0.116241276 -0.4179658 0.36080813 -0.19974203
0.21140596 0.24937333 0.23764966 -0.04868878 -0.45060965 0.040235747 0.015119774 -0.038570873
-0.036084134 -0.02075242 0.031156106 -0.016944937 0.046996906 -0.02924 0.05409844 0.0003718778
0.006478282 -0.053464517 -0.062369864 0.18123335 0.18318324 -0.10905177 -0.048655674 0.012361876
-0.09414393 0.14824682 -0.21574719 0.024901938 0.16863827 0.105868086 0.10714583 -0.10587675
0.05364911 -0.034305133 -0.052491274 0.013395226 0.26197025 0.32392174 -0.23347455 -0.045967672
00000000: 8577 edbc 12eb eb3d 00ff 723e 036a dd3d
00000010: 7eab ef3e e2a2 96bd 2ca9 10be 66a4 733e
00000020: db83 133e 3399 8c3e 85da 81be ad4d 053f
00000030: fdf6 9a3d 344d d3be 3d88 56be 7539 c5be
00000040: 9421 2a3f f51d 8fbe 894f a83e 2336 af3e
00000050: b043 2dbd 43f1 3b3f f8b1 903b 402f 45bb
00000060: 1944 dd3c 47d8 c13c c1b4 91bd a395 c8ba
00000070: 9c66 4e3d 1156 85bd b958 2a3d 55f3 19bd
00000080: 4c27 e33c b754 6abd 4cfc 863c 1ec5 c73c
00000090: e04e aebd 7064 13bc 970d b4bd bf75 de3d
000000a0: a23a ec3b 713c 893d 3338 43be e3dc 453e
000000b0: 5d2f 29be bb8d d8bc fe71 013c eebe 82bd
000000c0: 15df b63c bcf5 1dbe c004 ed3d e8d1 9ebd
000000d0: 6c32 99be 0589 d63d ae24 1c3f c66b 8ebc
000000e0: dd2f 033e 8083 3abd 56fc af3e 9c06 e5be
000000f0: a848 61be 77e5 b2be 2c4c 533e bb3e 2bbe
00000100: c628 59be c3d6 a13e 09e1 0f3e db6b ca3e
00000110: 5623 09be cb72 3a3e 0846 33bd 99cb 04bd
00000120: c23e 953d f957 ee3d b0e6 45bd 9737 34bd
00000130: 068f b2bc a8ee 993c 3444 4cbd ff98 eaba
00000140: 2f28 95bc d470 1f3d 5a22 5a3d b046 4abc
00000150: 203b c23d 21b9 29be 74a9 0bbe 2c22 c5bd
00000160: abd1 813d ede5 be3d 4114 ad3c ebba b1bd
00000170: 2672 97bc a04c 863e bc89 9fbd 7f1d da3d
00000180: 758b 833d 42dd 03bd d055 40bd b175 89bd
00000190: db91 b93b 1e9f a13d 03de a1bd 47fc 1b3d
000001a0: 1d4b 003f dc32 063e d74f 0e3f 444c 213d
000001b0: 8575 543d ebab 143f 7f9a 053e 02e0 dcbd
000001c0: 9930 443d 2482 713e 1cef 923e c8d1 a43d
000001d0: 871a efbe d9de df3e 739b b63e fbc8 2fbe
000001e0: 02f5 df3d 0899 11be b777 16bd 92df be3c
000001f0: 18b3 393d 569b b0bd fbcf 533d 9766 b83c
00000200: ce72 413d e190 573c d669 7fbc 8f60 083d
00000210: d7f9 9d3d fdb4 cbbd 47b6 b33d 3b1b 97bc
00000220: 2f4c a43d 1038 b03e 8e8c cc3d d8b5 6fbe
00000230: b10c b93b 30b8 8dbd e0d8 7b3d dafa 33bd
00000240: 4666 64be c515 a73a afb6 233e be7e 1bbd
00000250: 3b1b 94bd 8f8a e23d 06ea 393d 1a8e a0bd
00000260: d20c f63d 7183 413e 520c 993e 8b68 fa3d
00000270: b473 e43d 9f7d c53e f05d 5c39 9936 97be
00000280: 7cbf 19bf a71d 43be cfab 503f 6009 acbe
00000290: dc52 493f c1f9 69bf 4e68 083f ae4c a3bd
000002a0: 440e 32bf 4a00 f4be 58da b53e acbd 053d
000002b0: 82ef 453c 88a8 77bc 3c80 b3bc db72 333d
000002c0: ac33 68bd 0ab7 d8bb 0eb0 733d 9468 bf3c
000002d0: 7347 9cbc 7045 25bd 72fd d1bb 5331 b13c
000002e0: daa4 1b3e 5be9 09bd 1192 003e b5b3 adbc
000002f0: bac1 8cbd 8b92 70bc c8ac d4bd 07c2 253d
00000300: 636a c03e 412d cabb 0f53 c5bc 33a8 083e
00000310: ecf9 863e 29ff a53c e512 a9bc 848e 223d
00000320: 6261 92bd aacb a63d 2444 253c cc6b 88bd
00000330: f5fa f0be 0e51 293e b5a0 09be 66c5 8b3e
00000340: 4e43 08be 2c6a f8be 2f10 ed3e 61dd 1dbe
00000350: e80f ee3d 9dff d5be d8bb b83e 2d89 4cbe
00000360: ce7a 583e b95b 7f3e 6f5a 733e e36d 47bd
00000370: 4fb6 e6be 3dce 243d eeb8 773c 7efc 1dbd
00000380: f5cc 13bd fb00 aabc 173b ff3c 1cd0 8abc
00000390: d47f 403d b988 efbc 5396 5d3d 98f8 c239
000003a0: c547 d43b 9cfd 5abd 8b77 7fbd 3c95 393e
000003b0: 6394 3b3e 8956 dfbd 2c4b 47bd 7789 4a3c
000003c0: 88ce c0bd 04ce 173e d5ec 5cbe 26ff cb3c
000003d0: 83af 2c3e 5ed1 d83d 466f db3d e9d5 d8bd
000003e0: 2bbf 5b3d 8a83 0cbd 1701 57bd a677 5b3c
000003f0: f720 863e 12d9 a53e f413 6fbe 9948 3cbd

actor.0.bias f4 [512]
-0.06407388 0.00734985 -0.103131756 -0.11424758 0.1246405 -0.04524337 0.17884618 0.015998637
-0.08194142 0.071718484 -0.1847161 0.18441929 0.117418356 -0.14778206 0.07609458 0.079346485
0.029939173 -0.16725515 0.03399658 0.09746543 -0.1485009 -0.11292361 -0.010367087 -0.07056587
-0.09928578 -0.093504265 0.23786782 0.12770063 0.027944302 -0.02393183 -0.1277219 -0.21753441
0.19437963 -0.18060562 -0.14524119 -0.01196527 0.07424825 0.035413522 0.047176722 -0.2276009
0.11971914 0.1355998 -0.12375576 -0.15782514 0.051291674 0.065366745 -0.023258625 0.023473896
-0.052292835 0.15471731 0.16757917 -0.12166127 -0.04598667 0.0004006891 -0.1101336 -0.0061850525
-0.06583855 -0.11154656 -0.09720018 -0.13910231 0.0043520164 -0.0707949 -0.09035106 0.1088203
0.0019751575 0.19779067 -0.1760911 0.017877858 -0.15190175 0.11793232 -0.06643938 -0.29159993
0.054964047 -0.095313676 0.05628851 0.0505169 -0.10746167 -0.11945064 0.08316062 -0.17382911
0.12673675 0.13968948 0.1576122 0.18901874 -0.07638828 0.17423943 -0.15225501 -0.075241804
0.12545234 -0.017514944 -0.092835106 -0.044869218 -0.13758075 -0.23182555 -0.080035076 -0.032264724
-0.05182362 -0.109481364 0.007850298 0.111632496 -0.14941394 0.13894017 -0.16180965 0.033943314
-0.13949923 0.16544887 0.050127666 0.025035817 -0.0002237343 -0.10626435 0.06349556 0.11264546
0.09136532 -0.11382885 0.047423217 -0.07618476 0.10506657 -0.18512586 0.07576185 0.08229181
-0.22089174 0.20546055 0.12692337 -0.3070156 -0.119447984 -0.012235484 0.21136683 -0.09006423
0.07390395 -0.07347152 -0.11899176 0.0295511 0.1255308 0.1282027 -0.04144172 0.0016608052
0.048387446 0.1776297 0.026109127 0.14056408 -0.04346382 -0.10136179 -0.118403256 -0.048918713
-0.03368947 0.12624916 -0.32546237 -0.112939574 0.048597377 0.055251032 -0.15459141 0.07780642
0.057766452 0.16850616 -0.11085629 -0.1972762 0.1780049 0.042567715 -0.28180254 -0.014418022
-0.040374298 -0.020409744 -0.10549348 -0.035395347 -0.114119135 -0.026085272 0.16309933 -0.12879609
0.11904167 0.1284728 0.18980889 -0.01223624 0.059329595 -0.20222713 -0.06720766 -0.039053604
0.23592226 -0.14718604 0.15373635 0.1715203 -0.13409959 0.11935744 0.14880617 -0.13630557
-0.09054552 0.06537169 0.1266166 -0.09355723 -0.10268554 -0.035257295 -0.2127042 0.11365772
0.06424086 -0.18057452 -0.21283273 -0.0404979 0.040695664 -0.059890136 0.20535281 -0.13871886
0.08041761 -0.029057762 0.048725586 0.04467756 0.040852517 0.053763 0.18828744 -0.10644201
0.050095618 -0.08461551 -0.13156922 0.09873567 -0.01163113 0.13781074 -0.12439828 0.15619548
0.17765872 -0.08201576 -0.13690011 -0.1865045 -0.02329939 0.07749092 -0.008298473 0.041651353
-0.086235344 0.082075134 -0.045870323 0.121088125 0.062041402 0.048526477 0.13891184 0.055088602
0.2131138 0.03416719 0.003936659 0.12917101 0.1620817 -0.003959622 0.0235195 0.12369762
-0.050860904 -0.22607626 0.108326934 -0.15207808 -0.16336869 0.03933448 -0.05501706 0.060505122
-0.22560753 0.10048601 0.13040513 0.03825667 -0.0038980835 -0.14766553 -0.011397743 -0.0052451543
00000000: 2b39 83bd 03d7 f03b be36 d3bd a3fa e9bd
00000010: 8543 ff3d 1d51 39bd 7423 373e 930f 833c
00000020: e7d0 a7bd 24e1 923d 3826 3dbe 69d8 3c3e
00000030: 0979 f03d 2e54 17be 7ad7 9b3d 6980 a23d
00000040: ff42 f53c ef44 2bbe ff3f 0b3d f59b c73d
00000050: 9f10 18be 7e44 e7bd b7da 29bc d784 90bd
00000060: 5856 cbbd 2a7f bfbd 9f93 733e f4c3 023e
00000070: 73eb e43c af0c c4bc 88c9 02be 57c1 5ebe
00000080: 740b 473e aef0 38be 1bba 14be fb09 44bc
00000090: 770f 983d c50d 113d 613c 413d 3610 69be
000000a0: 4f2f f53d adda 0a3e a973 fdbd ea9c 21be
000000b0: 3817 523d 00df 853d df88 bebc 544c c03c
000000c0: 0331 56bd 376e 1e3e e099 2b3e 8b29 f9bd
000000d0: 855c 3cbd 9513 d239 ba8d e1bd fbab cabb
000000e0: 5dd6 86bd 8672 e4bd e310 c7bd d670 0ebe
000000f0: 5c9b 8e3b ebfc 90bd fa09 b9bd 2ddd de3d
00000100: a571 013b a389 4a3e 3a51 34be 9674 923c
00000110: 228c 1bbe 8086 f13d 5f11 88bd 964c 95be
00000120: fb21 613d d133 c3bd c88e 663d cfea 4e3d
00000130: dd14 dcbd 8aa2 f4bd 1d50 aa3d 4200 32be
00000140: 47c7 013e c20a 0f3e 1865 213e 218e 413e
00000150: 7571 9cbd d26b 323e bde8 1bbe 6018 9abd
00000160: 9476 003e 807b 8fbc 5520 bebd c9c8 37bd
00000170: f8e1 0cbe ad63 6dbe 6ee9 a3bd 0428 04bd
00000180: 0145 54bd c437 e0bd 899e 003c 949f e43d
00000190: f8ff 18be 5546 0e3e 6eb1 25be 2508 0b3d
000001a0: e3d8 0ebe 6e6b 293e ab52 4d3d ea17 cd3c
000001b0: 389a 6ab9 20a1 d9bd f609 823d aab2 e63d
000001c0: be1d bb3d 1a1f e9bd d93e 423d c106 9cbd
000001d0: 242d d73d a291 3dbe 0729 9b3d 9c88 a83d
000001e0: 7231 62be 4064 523e 33f8 013e 2631 9dbe
000001f0: 25a1 f4bd 5777 48bc 8c70 583e 9873 b8bd
00000200: f45a 973d 3c78 96bd f4b1 f3bd 2615 f23c
00000210: 258b 003e 9247 033e cbbe 29bd 60af d93a
00000220: ea31 463d 8fe4 353e cfe2 d53c 08f0 0f3e
00000230: 1e07 32bd c596 cfbd 687d f2bd fd5e 48bd
00000240: f8fd 09bd 7647 013e 01a3 a6be dd4c e7bd
00000250: 0b0e 473d e84e 623d 364d 1ebe f958 9f3d
00000260: 849c 6c3d e18c 2c3e 9f08 e3bd c602 4abe
00000270: eb46 363e 7c5b 2e3d 6c48 90be 9139 6cbc
00000280: 855f 25bd 5632 a7bc f70c d8bd b6fa 10bd
00000290: 4bb7 e9bd c8b0 d5bc 8303 273e 1fe3 03be
000002a0: 1ecc f33d 608e 033e 435d 423e 837a 48bc
000002b0: 9703 733d a114 4fbe 2ba4 89bd acf6 1fbd
000002c0: 9b95 713e f0b7 16be 106d 1d3e 04a3 2f3e
000002d0: 6751 09be ac71 f43d a560 183e b093 0bbe
000002e0: ee6f b9bd 98e1 853d c8a7 013e ef9a bfbd
000002f0: cc4c d2bd f469 10bd 21cf 59be 61c5 e83d
00000300: b690 833d 87e8 38be d3f0 59be 20e1 25bd
00000310: 7fb0 263d 5c4f 75bd 0248 523e 510c 0ebe
00000320: fdb1 a43d 8b0a eebc 7b94 473d d1ff 363d
00000330: f854 273d 9736 5c3d 6cce 403e 45fe d9bd
00000340: 1031 4d3d e64a adbd 15ba 06be ed35 ca3d
00000350: 7f90 3ebc 421e 0d3e 87c4 febd b5f1 1f3e
00000360: 2bec 353e e1f7 a7bd 8b2f 0cbe 09fb 3ebe
00000370: 5dde bebc 8fb3 9e3d 52f6 07bc 9c9a 2a3d
00000380: 289c b0bd 0217 a83d 85e2 3bbd 0dfd f73d
00000390: 201f 7e3d b3c3 463d e83e 0e3e 96a4 613d
000003a0: 813a 5a3e e5f2 0b3d 17ff 803b 6845 043e
000003b0: bff8 253e b7bf 81bb f7ab c03c 2e55 fd3d
000003c0: 8653 50bd 8980 67be 83da dd3d 5bba 1bbe
000003d0: 1f4a 27be 311d 213d 9259 61bd 38d4 773d
000003e0: a905 67be 9ccb cd3d ec88 053e 07b3 1c3d
000003f0: fd76 7fbb a235 17be 99bd 3abc 8bdf abbb

actor.2.weight f4 [256, 512]
0.0019089967 -0.0069344337 -0.06254827 -0.052651607 0.18936501 0.00914405 -0.03911489 0.022931917
-0.06634977 0.026383929 -0.017655907 0.027570754 -0.09643006 0.036814425 0.0036282914 0.03720274
-0.03063588 0.050188143 0.012022042 -0.033892356 0.022145495 -0.11493112 -0.090608835 -0.09002077
-0.05349378 0.027528185 0.0017620599 -0.07666134 0.052072234 -0.059919123 0.004431825 -0.0014131222
0.08245057 0.022868069 0.044322237 0.011740046 0.10670438 -0.029056586 0.0025695416 0.1467268
0.109774075 0.13861668 -0.02690895 0.1272774 0.00083154783 -0.017193222 -0.063193254 0.04842527
-0.0028637967 0.026601473 0.07544234 -0.049747437 0.10881007 -0.012746388 0.0092259925 -0.042472843
0.12666714 -0.05600208 -0.07691768 -0.0969509 -0.008623732 -0.031784363 -0.13204591 -0.03658006
-0.06775555 -0.0014144828 -0.06539754 -0.083448894 -0.028426249 -0.1147066 -0.016591808 0.032323822
0.019866124 -0.01252985 -0.03598253 0.00695993 0.030152045 -0.00044354185 0.016799923 0.031832494
0.03065624 0.2240512 0.07328481 0.03535452 -0.083041735 0.10923482 -0.08244545 -0.08142124
0.0056682485 0.008459176 -0.07713022 -0.031490263 -0.07759913 0.010333296 0.0679601 0.044269264
-0.048251603 -0.033840526 0.0067313197 -0.062893026 -0.046360377 0.04744338 -0.15789871 -0.026930802
-0.0062706494 0.08789593 0.0028994165 -0.017344384 0.11588715 -0.11595994 0.041435674 -0.040423863
-0.0052794456 0.12538595 -0.026909085 -0.041271627 0.043958917 -0.07350909 -0.02370527 0.06493022
0.05281793 0.0063773617 0.108021766 0.051789064 0.061026998 -0.029850123 -0.04299243 -0.048117194
0.217209 0.04545324 -0.039667062 -0.022542927 -0.0066550486 0.04717272 0.06371691 0.015469162
-0.1373602 -0.030698182 -0.0006405768 0.12949802 -0.020554349 0.17087603 -0.027631683 0.050436404
0.01247555 0.04267395 0.061529785 0.157721 0.03919019 0.09880404 0.009529482 -0.16842988
0.11840144 0.09555402 0.02492698 0.02927305 0.10580091 0.05094741 0.037274525 0.08983203
-0.03450183 0.013476157 -0.05553447 0.101093516 -0.0039004404 -0.15963398 -0.036300164 -0.021772498
-0.06114243 0.00945063 -0.045854814 0.075308785 -0.03903995 0.02467758 -0.035055198 -0.011711696
0.07990218 -0.13525426 -0.009178918 -0.05467811 -0.11019824 0.020231286 -0.0009648645 -0.057536975
0.019653618 0.13028464 -0.010875314 -0.023664521 0.023111572 -0.07812231 -0.06954643 -0.1357865
0.06794776 -0.044162672 -0.037211124 0.03483909 0.12841116 -0.04356396 0.057585295 -0.005868199
0.09086816 -0.06695259 0.070838876 -0.053249113 0.023868052 -0.06272376 0.030969825 0.11168193
0.0007396886 0.06631764 -0.037965443 0.045785755 -0.015719948 0.09157565 -0.011609672 0.060012944
0.11936273 -0.037478566 0.03369393 -0.055931006 -0.012902817 0.018870434 0.09770687 0.02187952
0.061954908 0.05708806 -0.007212633 -0.09704763 0.092169106 -0.029249026 -0.05366662 -0.01936171
-0.04380625 0.069309086 -0.09648747 0.0014980953 0.020157428 0.0056379302 -0.039307673 -0.017590914
-0.016114486 0.02757146 -0.09072358 0.090987526 -0.14953887 -0.0047730263 0.021267423 -0.0046365457
-0.0034876359 -0.021924485 -0.00022670448 0.060105838 -0.037812088 0.07054663 0.046864986 0.047253743
00000000: 4d37 fa3a 3f3a e3bb 4f19 80bd 36a9 57bd
00000010: e7e8 413e edd0 153c ef36 20bd b7db bb3c
00000020: 63e2 87bd 1c23 d83c 1fa3 90bc 10dc e13c
00000030: 207d c5bd b9ca 163d a1c8 6d3b e661 183d
00000040: 19f8 fabc 1592 4d3d 19f8 443c b6d2 0abd
00000050: 786a b53c 0261 ebbd 2091 b9bd cf5c b8bd
00000060: 4b1c 5bbd ca82 e13c ebf4 e63a 9f00 9dbd
00000070: b249 553d c16d 75bd d838 913b 8338 b9ba
00000080: d8db a83d d155 bb3c 3c8b 353d 5259 403c
00000090: d387 da3d 1408 eebc c165 283b 8d3f 163e
000000a0: 3bd1 e03d 88f1 0d3e 2970 dcbc 0255 023e
000000b0: 3bfc 593a cdd8 8cbc 776b 81bd 9359 463d
000000c0: 89ae 3bbb 55eb d93c 8381 9a3d f8c3 4bbd
000000d0: d0d7 de3d 3ad6 50bc 9e28 173c 01f8 2dbd
000000e0: 08b5 013e 7062 65bd 0487 9dbd 328e c6bd
000000f0: 8e4a 0dbc 5230 02bd 0b37 07be f9d4 15bd
00000100: 6cc3 8abd 2b66 b9ba 25ef 85bd 41e7 aabd
00000110: 2ade e8bc 4beb eabd 8beb 87bc fc65 043d
00000120: 48be a23c 004a 4dbc 6b62 13bd 2010 e43b
00000130: 6c01 f73c 2e8b e8b9 fe9f 893c ca62 023d
00000140: cc22 fb3c ae6d 653e 5916 963d e7cf 103d
00000150: c911 aabd 81b6 df3d 29d9 a8bd 2ec0 a6bd
00000160: b7bc b93b 5b98 0a3c 73f6 9dbd effb 00bd
00000170: 4bec 9ebd fc4c 293c aa2e 8b3d b053 353d
00000180: 79a3 45bd 5d9c 0abd 6792 dc3b 0fce 80bd
00000190: 61e4 3dbd fd53 423d 33b0 21be fc9d dcbc
000001a0: 057a cdbb c802 b43d 2304 3e3b cf15 8ebc
000001b0: 3e56 ed3d 687c edbd 74b8 293d 7e93 25bd
000001c0: 33ff acbb 2d65 003e 7170 dcbc 700c 29bd
000001d0: 440e 343d ef8b 96bd 8e31 c2bc 23fa 843d
000001e0: 9d57 583d 30f9 d03b 843a dd3d c520 543d
000001f0: 72f7 793d 3f88 f4bc d518 30bd 8916 45bd
00000200: 096c 5e3e 2d2d 3a3d ee79 22bd f2ab b8bc
00000210: 9812 dabb 2f38 413d 037e 823d 5e72 7d3c
00000220: 27a8 0cbe c17a fbbc 62ec 27ba 219b 043e
00000230: 9861 a8bc 20fa 2e3e d75b e2bc 6796 4e3d
00000240: 4066 4c3c e1ca 2e3d a806 7c3d 9d81 213e
00000250: e585 203d c659 ca3d 8b21 1c3c e278 2cbe
00000260: 747c f23d d3b1 c33d aa33 cc3c 09ce ef3c
00000270: 26ae d83d 3bae 503d 2cad 183d dbf9 b73d
00000280: ca51 0dbd 19cb 5c3c 1d78 63bd 1e0a cf3d
00000290: 889e 7fbb 1777 23be 7baf 14bd 3d5c b2bc
000002a0: 7c70 7abd d1d6 1a3c 42d2 3bbd 7e3b 9a3d
000002b0: 5be8 1fbd a328 ca3c 0a96 0fbd 6ae2 3fbc
000002c0: c1a3 a33d 1880 0abe 2c63 16bc 27f6 5fbd
000002d0: 9daf e1bd 15bc a53c f6ee 7cba e4ab 6bbd
000002e0: a000 a13c 5669 053e 5f2e 32bc 19dc c1bc
000002f0: 7b54 bd3c 97fe 9fbd 5c6e 8ebd 9e0b 0bbe
00000300: 3228 8b3d ebe3 34bd b16a 18bd 6fb3 0e3d
00000310: 377e 033e 1f70 32bd 8fde 6b3d 054a c0bb
00000320: 1619 ba3d 711e 89bd f913 913d be1b 5abd
00000330: ef86 c33c 5175 80bd 6eb4 fd3c 7fb9 e43d
00000340: a9e7 413a 8bd1 873d a781 1bbd d889 3b3d
00000350: 1fc7 80bc 048c bb3d 7e36 3ebc 22d0 753d
00000360: 7274 f43d 2083 19bd a502 0a3d e917 65bd
00000370: 5666 53bc 2b96 9a3c 8a1a c83d ae3c b33c
00000380: 6ec4 7d3d 2bd5 693d f357 ecbb e8c0 c6bd
00000390: 28c3 bc3d a79b efbc 88d1 5bbd 739c 9ebc
000003a0: 2f6e 33bd ecf1 8d3d 399b c5bd bd5b c43a
000003b0: 3121 a53c 63be b83b 1501 21bd d21a 90bc
000003c0: 8702 84bc 8bdd e13c 49cd b9bd ab57 ba3d
000003d0: b820 19be 0c67 9cbb 0539 ae3c 2aee 97bb
000003e0: d290 64bb fa9a b3bc 85b7 6db9 8a31 763d
000003f0: d9e0 1abd c07a 903d 80f5 3f3d 248d 413d

actor.2.bias f4 [256]
-0.012656537 -0.08763549 -0.041291926 0.099419594 -0.062279474 -0.076264486 -0.07388938 -0.13589323
-0.08570619 -0.14113991 -0.05760559 -0.0580375 -0.113532715 -0.031113317 -0.035733223 -0.004291959
-0.114243746 -0.045571104 -0.04719108 -0.19657615 -0.12685809 -0.047394175 -0.14289114 -0.009262595
-0.19217683 -0.09296087 -0.030209258 -0.17583694 -0.09536818 -0.052912153 -0.21389084 -0.04595943
-0.13287032 -0.08758315 0.008390487 -0.13893612 0.0561054 -0.11895524 -0.13312234 -0.09706615
-0.0833364 -0.09043573 -0.10876935 -0.043824423 -0.20476577 0.03533764 -0.12870431 -0.05055777
-0.067713514 -0.16068858 -0.05583072 -0.12218629 -0.106894135 -0.12776051 -0.21008267 0.042850386
-0.07975714 0.08813056 -0.08869028 -0.026096968 -0.1892288 -0.058994688 0.0365001 -0.11157702
-0.108179584 -0.074550204 -0.123255245 0.0035119592 0.011542573 -0.07403353 -0.2216071 -0.087883316
-0.081374094 -0.10736788 -0.011632476 -0.11409049 -0.052213512 -0.06807392 0.052979823 -0.095989145
-0.12267036 0.02637042 -0.16858461 -0.06658421 -0.048101906 -0.12659593 -0.11849342 -0.022379134
-0.15089472 -0.13473204 -0.116057895 -0.14903542 -0.10533514 -0.093912505 -0.14216001 -0.045978595
-0.14907935 -0.017502353 -0.090237126 -0.14916065 -0.062036183 0.029130269 -0.16398622 -0.16212422
-0.03251681 0.035111945 -0.124004 -0.10051973 -0.18376498 -0.11974755 0.06548403 -0.11804635
-0.07464362 0.0032615408 -0.29511356 -0.090878844 -0.12008722 -0.043222085 0.008492931 -0.19584866
-0.16678485 0.050390024 -0.043337792 -0.12919173 -0.015058162 -0.07413568 -0.1021263 -0.2603107
-0.20326132 -0.05951731 -0.07606463 -0.012984179 -0.00092175545 -0.014342675 -0.09354466 -0.2713626
-0.11275976 -0.067054965 -0.18362656 -0.09569718 -0.11062615 -0.040312324 -0.12406091 -0.042981222
-0.07699782 -0.22798172 -0.10028221 -0.07803695 -0.07465307 -0.12509917 -0.07346864 -0.14147855
-0.08354616 -0.15866369 -0.23591264 -0.08344465 -0.21248409 -0.051755503 -0.1457832 -0.09580161
-0.022156805 -0.1130857 -0.091363244 -0.0972502 -0.25218827 -0.09306138 -0.022769263 -0.12832724
-0.044944156 -0.02359916 -0.06733616 -0.16521612 -0.056006894 -0.012656101 -0.096685074 -0.13263196
-0.166089 -0.15306465 -0.058697283 -0.07614407 -0.0657308 -0.0721861 -0.1536699 -0.15292868
-0.16724916 -0.07403977 -0.07544289 0.0111092515 0.010242003 -0.037407003 -0.19764893 -0.039791014
-0.07301721 -0.078166775 -0.09127094 -0.045719344 -0.10046683 -0.23071417 -0.13542977 -0.11230812
-0.027329188 -0.20397544 -0.09196445 -0.2577876 0.018795365 -0.050373245 -0.05331863 -0.13709551
-0.17146721 -0.078777105 0.008921381 -0.26305348 -0.10955474 -0.068735495 -0.05590076 -0.033376295
-0.020180067 -0.017778615 -0.019609941 -0.29695022 -0.14198579 0.040283423 -0.116079524 -0.11667004
-0.32203767 -0.11755807 0.030591466 0.035176516 0.035346348 -0.022252042 -0.10249254 -0.110134885
0.033527866 -0.093410864 -0.09332371 -0.12998112 -0.11387987 -0.06117159 0.0048714723 -0.060676523
-0.04035167 -0.025501188 -0.22041586 -0.08768503 -0.018761422 -0.09517925 -0.12928356 -0.0662141
0.02535876 0.041894786 -0.16948009 -0.07390658 -0.07013736 -0.039100826 -0.1116308 -0.17408161
00000000: 5d5d 4fbc 3c7a b3bd b921 29bd 809c cb3d
00000010: c318 7fbd 8e30 9cbd 5153 97bd 9827 0bbe
00000020: ba86 afbd fb86 10be d7f3 6bbd bbb8 6dbd
00000030: d783 e8bd 5be1 febc 005d 12bd 90a3 8cbb
00000040: a0f8 e9bd c4a8 3abd 6f4b 41bd 424b 49be
00000050: 16e7 01be 6520 42bd 0e52 12be 24c2 17bc
00000060: 01ca 44be 4562 bebd 6879 f7bc 990e 34be
00000070: 6450 c3bd 6aba 58bd 3306 5bbe f53f 3cbd
00000080: 280f 08be cb5e b3bd 4178 093c 4545 0ebe
00000090: c7ce 653d ce9e f3bd 3951 08be 9eca c6bd
000000a0: 46ac aabd 5e36 b9bd 77c2 debd 3d81 33bd
000000b0: 1eae 51be 34be 103d 10cb 03be aa15 4fbd
000000c0: 62ad 8abd 8c8b 24be c1ae 64bd ce3c fabd
000000d0: 50eb dabd a7d3 02be e91f 57be e383 2f3d
000000e0: b657 a3bd cc7d b43d 40a3 b5bd 4fc9 d5bc
000000f0: 32c5 41be 6aa4 71bd 2181 153d 7e82 e4bd
00000100: 428d ddbd c7ad 98bd 3f6d fcbd e628 663b
00000110: 0f1d 3d3c e49e 97bd f9ec 62be 2bfc b3bd
00000120: 76a7 a6bd b1e3 dbbd 2496 3ebc 46a8 e9bd
00000130: d6dd 55bd 576a 8bbd 5f01 593d f595 c4bd
00000140: 993a fbbd c706 d83c 72a1 2cbe 4d5d 88bd
00000150: 8106 45bd 5da2 01be aeac f2bd 7254 b7bc
00000160: 2584 1abe 32f7 09be c3af edbd be9c 18be
00000170: f3b9 d7bd 3355 c0bd 6592 11be 0d54 3cbd
00000180: 42a8 18be 1861 8fbc 3ece b8bd 92bd 18be
00000190: a719 7ebd 9aa2 ee3c 01ec 27be e403 26be
000001a0: 5930 05bd 8bd1 0f3d cff5 fdbd 4add cdbd
000001b0: e32c 3cbe 343e f5bd 7e1c 863d 49c2 f1bd
000001c0: c1de 98bd 93bf 553b 2019 97be b01e babd
000001d0: 4af0 f5bd a409 31bd ef25 0b3c 8d8c 48be
000001e0: a6c9 2abe c565 4e3d f882 31bd d64a 04be
000001f0: 82b6 76bc 73d4 97bd 9827 d1bd 7247 85be
00000200: bc23 50be 6cc8 73bd c6c7 9bbd 98bb 54bc
00000210: f6a1 71ba 8afd 6abc 5894 bfbd 0af0 8abe
00000220: 97ee e6bd 1d54 89bd 9a08 3cbe e2fc c3bd
00000230: f78f e2bd 891e 25bd a513 febd 140d 30bd
00000240: 08b1 9dbd 0a74 69be c260 cdbd d6d1 9fbd
00000250: b5e3 98bd ff19 00be ba76 96bd c1df 10be
00000260: 401a abbd bc78 22be 1593 71be 07e5 aabd
00000270: 6e95 59be 94fd 53bd 3148 15be a233 c4bd
00000280: 3082 b5bc 7a99 e7bd a71c bbbd 1d2b c7bd
00000290: d21e 81be f796 bebd 9b86 babc 3768 03be
000002a0: 5d17 38bd 0753 c1bc 8ae7 89bd 6a2e 29be
000002b0: 7c67 65bd 895b 4fbc d302 c6bd acd0 07be
000002c0: 3c13 2abe fbbc 1cbe 906c 70bd 6cf1 9bbd
000002d0: df9d 86bd 4ed6 93bd a45b 1dbe 5699 1cbe
000002e0: 5d43 2bbe 2aa2 97bd cd81 9abd 9403 363c
000002f0: 13ce 273c 1638 19bd 7b64 4abe e7fb 22bd
00000300: 0c8a 95bd e715 a0bd 42ec babd 3544 3bbd
00000310: 8ec1 cdbd 5640 6cbe 1aae 0abe cd01 e6bd
00000320: 76e1 dfbc f0de 50be dc57 bcbd bcfc 83be
00000330: bdf8 993c 2d54 4ebd a364 5abd c462 0cbe
00000340: 1a95 2fbe e455 a1bd fc2a 123c f2ae 86be
00000350: 3c5e e0bd 32c5 8cbd 32f8 64bd 95b5 08bd
00000360: ab50 a5bc 75a4 91bc 07a5 a0bc dc09 98be
00000370: b964 11be 3b00 253d 1abb edbd b4f0 eebd
00000380: 1fe2 a4be 49c2 f0bd f49a fa3c 4015 103d
00000390: 55c7 103d ea49 b6bc 9ce7 d1bd 668e e1bd
000003a0: 8454 093d 324e bfbd 8020 bfbd c519 05be
000003b0: d939 e9bd 108f 7abd dfa0 9f3b f287 78bd
000003c0: cb47 25bd dee7 d0bc b2b4 61be 3694 b3bd
000003d0: 8eb1 99bc 57ed c2bd e962 04be 429b 87bd
000003e0: 2dbd cf3c de99 2b3d 308c 2dbe 555c 97bd
000003f0: 2da4 8fbd 3028 20bd b09e e4bd 7342 32be

actor.4.weight f4 [128, 256]
0.01977648 0.055679057 0.018622434 -0.07890978 -0.006610082 -0.039282966 0.036625925 -0.08505479
-0.08957411 0.038833976 -0.05734925 0.0019171725 0.028636308 0.06997983 0.02824398 0.10662182
-0.033827417 -0.01933705 -0.023344606 -0.010515145 -0.15587704 0.031672444 0.1470268 0.04357751
0.029958306 0.0143869845 -0.13195767 0.17948228 0.047752794 0.08234248 0.034902968 0.008015474
0.02724993 0.12545286 -0.018536342 -0.0617782 0.07540528 0.09747859 -0.10407197 -0.07132352
-0.025658105 0.02806679 0.0122553045 0.065179355 -0.06502089 -0.050411023 -0.021722328 -0.088131815
-0.032155685 -0.012890302 -0.009570385 0.04003109 0.08657159 -0.052275684 -0.0088951895 -0.07451915
-0.054563783 -0.060926948 -0.022849113 0.030216442 0.11521684 0.07004304 -0.0088599725 -0.16265628
-0.021520795 0.08372091 0.0098275365 0.03001534 0.12293685 0.07404253 0.024641903 -0.20465572
-0.012708592 -0.08074993 -0.11586143 0.051206343 -0.005869648 0.048478756 -0.018661479 -0.018563738
0.02979502 -0.0051853 0.048779443 -0.053131584 -0.08790642 0.013723514 0.056138296 -0.1427006
0.050056417 0.101700835 0.044404387 -0.049874853 0.0566622 -0.08343953 -0.058612514 -0.010364572
-0.04038639 -0.04977626 0.098424874 -0.09368795 0.09982899 -0.026703775 0.014484629 0.022285394
-0.025175832 -0.051749416 -0.070504084 0.07467055 -0.057317555 -0.060741965 -0.017568832 0.09817943
-0.004537626 0.06667067 0.07238435 0.078178465 0.048038065 0.048822824 -0.018347472 0.04861972
-0.038309354 -0.13396709 0.1325378 0.10883989 -0.001451609 0.012414776 -0.013398458 -0.011086222
0.12486722 -0.049857978 0.02777785 -0.039796412 0.014682508 -0.15964466 -0.03498743 0.14322273
0.027690152 -0.058385834 -0.2270505 0.041947655 0.006321602 0.0072341254 -0.03799646 -0.110259846
0.04455827 -0.029804936 -0.12618603 -0.002053448 0.083841525 -0.058717433 0.001479202 -0.059629276
-0.050987016 -0.021127373 0.0938635 0.06466138 -0.0027020385 0.089720756 -0.004509223 -0.020956006
0.014507313 0.052420806 0.06798563 0.062166117 0.017573336 -0.09936959 0.042145643 -0.0031275917
-0.077783346 -0.047633342 -0.057468858 0.14646016 -0.06496066 -0.048575442 0.18656406 -0.0025234383
0.0105166575 0.04730884 -0.025148237 0.035898857 -0.09836689 -0.047499843 -0.05462688 0.14898206
0.015166414 0.040156387 -0.07441076 -0.02116089 0.012175828 -0.017900525 0.049784612 0.12506087
-0.085330814 0.04366023 -0.12771769 0.0012623961 0.042479828 -0.08504756 -0.06658967 -0.06506349
-0.11356686 0.030553453 -0.043807223 -0.11672501 -0.08003496 0.013751641 0.050775126 -0.041070666
0.004417748 0.017242825 0.047411494 0.057832133 0.14931571 0.04780482 0.054165635 -0.123337716
0.015594106 0.03956909 -0.08433983 0.034089815 -0.10273062 -0.022928983 0.11431887 -0.00927158
0.17162918 -0.029402932 0.04791397 -0.044218928 -0.03709851 0.036898017 0.06493765 -0.15454762
0.017691659 0.09313155 -0.09712621 0.025830211 0.0018820164 -0.02123469 -0.13344187 -0.050306827
0.08478479 -0.009538515 0.08978841 0.17374487 0.060301594 -0.0992862 0.0645811 -0.040040314
-0.017823149 -0.09994785 -0.024257129 0.02142956 0.050773777 0.0632679 -0.046229225 0.041310217
00000000: 4902 a23c b90f 643d 138e 983c 739b a1bd
00000010: 6399 d8bb 2de7 20bd 1105 163d 3531 aebd
00000020: a272 b7bd 6010 1f3d 0ce7 6abd a249 fb3a
00000030: b196 ea3c 9651 8f3d eb5f e73c 8a5c da3d
00000040: 9e8e 0abd bc68 9ebc 303d bfbc b747 2cbc
00000050: 3b9e 1fbe f7ba 013d 328e 163e 557e 323d
00000060: 1f6b f53c 63b7 6b3c e91f 07be 34ca 373e
00000070: 6f98 433d 2da3 a83d 6af6 0e3d 5653 033c
00000080: 3f3b df3c b776 003e 87d9 97bc 230b 7dbd
00000090: 156e 9a3d dba2 c73d af23 d5bd 1112 92bd
000000a0: f230 d2bc 53ec e53c 79ca 483c c17c 853d
000000b0: ac29 85bd ca7b 4ebd 06f3 b1bc 747e b4bd
000000c0: aeb5 03bd d831 53bc 1bcd 1cbc a4f7 233d
000000d0: 724c b13d 071f 56bd 21bd 11bc 7f9d 98bd
000000e0: 467e 5fbd 898e 79bd 102e bbbc 7988 f73c
000000f0: cef6 eb3d ba72 8f3d 6b29 11bc 5e8f 26be
00000100: 614c b0bc de75 ab3d ad03 213c bbe2 f53c
00000110: 51c6 fb3d 9ca3 973d d1dd c93c 4591 51be
00000120: b337 50bc 3860 a5bd c248 edbd bebd 513d
00000130: 2d56 c0bb a991 463d f5df 98bc fb12 98bc
00000140: b014 f43c 73e9 a9bb f4cc 473d 81a0 59bd
00000150: 4808 b4bd 97d8 603c 45f1 653d 1b20 12be
00000160: f507 4d3d 8748 d03d 60e1 353d 9349 4cbd
00000170: 9f16 683d 58e2 aabd ad13 70bd 2ad0 29bc
00000180: 336c 25bd 31e2 4bbd fb92 c93d 78df bfbd
00000190: 2473 cc3d e0c1 dabc f050 6d3c dc8f b63c
000001a0: 8c3d cebc 32f7 53bd 7264 90bd e0ec 983d
000001b0: d0c5 6abd 91cc 78bd 83ec 8fbc 4c12 c93d
000001c0: 5eb0 94bb a28a 883d 3f3e 943d 081c a03d
000001d0: 90c3 443d 71fa 473d 704d 96bc 7925 473d
000001e0: 45ea 1cbd ab2e 09be fdb7 073e 73e7 de3d
000001f0: ea43 beba 5867 4b3c 3585 5bbc fca2 35bc
00000200: 63ba ff3d e137 4cbd 608e e33c 9001 23bd
00000210: e78e 703c e479 23be fb4e 0fbd fba8 123e
00000220: 75d6 e23c fc25 6fbd ed7f 68be 4ed1 2b3d
00000230: 7125 cf3b 3e0c ed3b 2da2 1bbd eacf e1bd
00000240: bc82 363d 7b29 f4bc e936 01be 2493 06bb
00000250: 1bb5 ab3d b181 70bd c8e1 c13a d43d 74bd
00000260: c3d7 50bd 5013 adbc 823b c03d 306d 843d
00000270: af14 31bb 84bf b73d 1bc2 93bb eeab abbc
00000280: 15b0 6d3c 33b7 563d 0d3c 8b3d e6a1 7e3d
00000290: f5f5 8f3c 4982 cbbd e9a0 2c3d 48f8 4cbb
000002a0: e04c 9fbd 2e1b 43bd 7764 6bbd a7f9 153e
000002b0: 180a 85bd 0bf7 46bd a60a 3f3e 4560 25bb
000002c0: 0f4e 2c3c eac6 413d ad03 cebc ae0a 133d
000002d0: 9474 c9bd 328f 42bd 6fc0 5fbd c18e 183e
000002e0: 8d7c 783c 067b 243d ab64 98bd 9a59 adbc
000002f0: 207d 473c 1fa4 92bc f3ea 4b3d f50f 003e
00000300: ecc1 aebd 12d5 323d 6dc8 02be fc76 a53a
00000310: 54ff 2d3d 6a2d aebd 2a60 88bd 0240 85bd
00000320: be95 e8bd 3c4b fa3c 346f 33bd 860d efbd
00000330: 5ee9 a3bd 904e 613c 94f9 4f3d b739 28bd
00000340: c2c2 903b d340 8d3c 8e32 423d 63e1 6c3d
00000350: 38e6 183e fdce 433d c9dc 5d3d 7c98 fcbd
00000360: 6c7e 7f3c 3313 223d 5cba acbd c3a1 0b3d
00000370: 6e64 d2bd 90d5 bbbc 0320 ea3d d3e7 17bc
00000380: 8fbf 2f3e 6bde f0bc 7041 443d e81e 35bd
00000390: 9bf4 17bd 6022 173d 08fe 843d bb41 1ebe
000003a0: 19ee 903c c1bb be3d 1bea c6bd e199 d33c
000003b0: fead f63a 5ff4 adbc fca4 08be 880e 4ebd
000003c0: a6a3 ad3d 6e47 1cbc fce2 b73d 2dea 313e
000003d0: cefe 763d 9056 cbbd 1943 843d 5001 24bd
000003e0: da01 92bc 75b1 ccbd e3b6 c6bc 0b8d af3c
000003f0: 2af8 4f3d 9a92 813d db5a 3dbd e734 293d

actor.4.bias f4 [128]
-0.075916775 -0.08275919 -0.064247236 -0.093806274 -0.060588952 -0.20745774 -0.031149773 -0.116705306
0.042720787 -0.047869083 -0.019897696 -0.046951424 0.045668095 -0.011276564 -0.032831177 0.050829206
0.04472984 -0.022978796 -0.09434299 -0.061150543 -0.037371244 -0.051647253 -0.09510781 -0.036062438
-0.04525527 0.050911408 -0.056779705 -0.108038016 0.050430983 0.07707038 0.04024303 -0.10752467
0.03833293 -0.067194514 -0.04925511 0.041041773 -0.059378684 -0.102249466 -0.08729844 -0.0061000134
-0.07392142 -0.1174892 -0.28381807 -0.10204937 -0.017520295 0.031663463 -0.11546045 -0.089076914
-0.36826745 -0.06735118 -0.09567695 -0.018945783 -0.055193964 0.037216634 -0.06971697 -0.08725607
-0.020912044 -0.016239773 -0.0014129562 -0.029467087 -0.067305155 -0.046246693 0.052656427 -0.06409551
-0.017018862 -0.06520694 -0.036532212 -0.0970159 -0.031054126 -0.07567 -0.13287057 -0.022015983
0.0037781268 -0.09260441 -0.09534974 -0.16385764 -0.07861684 -0.13176529 0.028219268 -0.05328084
0.020061374 -0.07596718 -0.018176606 -0.017511696 -0.08663055 -0.059223566 0.008359535 0.002760035
-0.06445713 -0.11598496 -0.08006411 -0.00060808763 0.026267905 -0.06325747 -0.05866255 -0.048019294
-0.08661368 0.046241377 -0.004913726 0.072053 0.004626316 -0.0028426645 -0.17948945 -0.10347305
-0.06820766 -0.084468946 -0.09528681 0.018168055 -0.12655514 0.020436116 -0.05234715 -0.273974
-0.085679665 -0.122562364 -0.035036907 -0.061507724 -0.0019651814 -0.09550866 -0.13563241 -0.047104944
-0.030301284 -0.21200316 0.009329019 -0.06481061 0.02544789 -0.08655997 -0.032798003 -0.11606053
00000000: 417a 9bbd a67d a9bd 0e94 83bd 811d c0bd
00000010: 1f2c 78bd cd6f 54be cf2d ffbc 3103 efbd
00000020: fefb 2e3d 5f12 44bd 7e00 a3bc 2350 40bd
00000030: 780e 3b3d 56c1 38bc fc79 06bd 4932 503d
00000040: a336 373d 073e bcbc e636 c1bd fe78 7abd
00000050: 9712 19bd 128c 53bd e2c7 c2bd 35b6 13bd
00000060: 975d 39bd 7b88 503d d691 68bd 0943 ddbd
00000070: b890 4e3d 13d7 9d3d e0d5 243d e535 dcbd
00000080: fe02 1d3d 479d 89bd babf 49bd 6b1b 283d
00000090: 1037 73bd 2b68 d1bd 86c9 b2bd 9fe2 c7bb
000000a0: 1d64 97bd 2d9e f0bd 9a50 91be 43ff d0bd
000000b0: b986 8fbc 8cb1 013d 8776 ecbd f56d b6bd
000000c0: 8d8d bcbe 6aef 89bd 47f2 c3bd 3034 9bbc
000000d0: 1113 62bd 7870 183d c5c7 8ebd 4fb3 b2bd
000000e0: bc4f abbc 4609 85bc f132 b9ba f664 f1bc
000000f0: 49d7 89bd 2c6d 3dbd 44ae 573d 8244 83bd
00000100: 246b 8bbc 378b 85bd cda2 15bd 46b0 c6bd
00000110: 3965 febc dff8 9abd 390f 08be dd5a b4bc
00000120: 739a 773b 62a7 bdbd b946 c3bd 4cca 27be
00000130: de01 a1bd 7bed 06be 182c e73c 033d 5abd
00000140: c057 a43c ae94 9bbd 1be7 94bc b074 8fbc
00000150: 5c6b b1bd 6994 72bd 6ef6 083c b4e1 343b
00000160: 1a02 84bd 8689 edbd a7f8 a3bd 1268 1fba
00000170: ca2f d73c 228d 81bd 2448 70bd e1af 44bd
00000180: 8362 b1bd 9967 3d3d 5203 a1bb 8690 933d
00000190: 5a98 973b ff4b 3abb 15cc 37be aee9 d3bd
000001a0: 75b0 8bbd 0efe acbd bb25 c3bd 2cd5 943c
000001b0: ac97 01be a469 a73c f769 56bd 5246 8cbe
000001c0: d278 afbd fa01 fbbd dc82 0fbd 86ef 7bbd
000001d0: 46ca 00bb 0b9a c3bd 39e3 0abe 1df1 40bd
000001e0: 663a f8bc 5b17 59be bed8 183c 6dbb 84bd
000001f0: 1878 d03c 5b46 b1bd 3357 06bd 25b1 edbd

actor.6.weight f4 [12, 128]
0.054305404 0.052281715 0.0066913036 0.05381182 -0.018783823 0.0012658623 -0.019059602 0.019573104
0.0746336 -0.042752363 0.020540975 0.023647876 -0.002635301 -0.015153664 -0.09387391 -0.03454281
0.020847134 -0.037933506 -0.004323544 -0.14399299 -0.076526344 0.027491705 0.0457154 0.07849242
-0.040198147 0.0058852597 0.011600486 -0.04564128 -0.0450243 0.017449439 0.0021123667 -0.03687141
0.008542694 -0.023388723 -0.07734048 0.0074661626 0.06285715 0.05342114 0.14170551 0.013037002
-0.0075058616 0.020064233 0.0733283 -0.021574479 0.027060416 0.015857968 0.010260476 0.05586992
0.013001187 -0.018979555 -0.0828068 0.038731806 -0.029488249 0.06305298 -0.077537075 0.014767773
-0.06073838 -0.024591073 0.014607979 0.051015254 -0.008921946 0.012827623 0.0055645076 0.057316814
-0.0057575884 -0.013684671 -0.019349838 -0.052547306 -0.011396579 0.0029830493 -0.037920836 0.029204326
0.05800623 -0.007235175 0.001374922 0.019444497 0.030890213 0.06291531 -0.02266694 0.03410418
-0.0020910695 -0.013235533 -0.0047165216 -0.027231816 -0.0023169918 0.043174125 0.020837108 -0.0010570589
0.011525716 -0.00526747 -0.045041885 0.026483811 0.036712226 -0.040890697 0.03646759 -0.038465526
-0.030127836 -0.03639204 -0.028555557 0.08199883 0.011328932 -0.015626507 -0.037755646 -0.05185799
-0.039761685 0.03434747 -0.019812193 0.01274392 -0.033652063 0.017304681 0.03044595 0.042943727
-0.015739912 0.06935098 -0.07548094 0.011249705 -0.0089179715 -0.07047669 0.015089445 -0.016131375
0.019680187 0.0035436812 0.03570593 -0.008930671 0.033471953 0.012745174 -0.007228732 -0.037541997
-0.0139017785 0.039289873 0.0036885804 -0.032980625 0.097145915 -0.05256628 -0.008267244 0.040112242
-0.10851949 -0.018068084 -0.025260426 -0.008150781 0.03647928 -0.010983317 -0.05541142 0.0070517403
-0.020193875 0.018022902 0.07617922 -0.014274885 0.05515164 -0.0064316234 0.033968963 -0.008418074
0.026591362 -0.022966208 0.034769088 0.1019772 -0.010508211 -0.100349635 -0.007579571 0.08008094
-0.050988607 -0.016714873 0.015193429 0.005239592 -0.03271462 0.055038698 -0.102814995 0.042804155
0.0022862556 0.012156967 -0.08261356 -0.0053416654 -0.042655632 0.015209975 0.019388836 0.04128019
-0.048479296 -0.007246823 0.056419976 -0.02244477 0.0009098212 -0.050194353 -0.025145825 0.04973881
-0.086053774 0.021311076 -0.048808537 0.0031438938 0.009503076 0.0036128194 -0.058069654 -0.041709997
0.009950065 0.006117351 -0.035044655 0.055226725 -0.0258673 0.01766539 0.042230673 0.019374706
-0.015859453 -0.00724047 -0.009405013 0.028266957 -0.039239597 -0.005676988 0.048215505 -0.0066795093
-0.049343385 0.037427027 0.058245115 0.028862333 -0.080746494 0.020454362 -0.010393991 0.029865589
0.030413471 -0.04192287 0.014351388 -0.05473071 0.06557406 -0.025269067 -0.03448995 0.008540101
0.03277111 -0.025896467 -0.017577168 0.023260875 0.028574483 0.0209964 -0.04924532 -0.053813398
-0.050684333 0.037274156 0.033408105 -0.02579784 0.0024341713 -0.034941014 0.0419196 -0.034620468
0.00065061456 0.027599487 0.066898964 0.0039425613 -0.0007830922 0.0044355183 -0.00070970773 0.0029532977
-0.0061872383 -0.001293424 -0.07130259 0.025856838 0.04422362 0.06512036 -0.005790345 0.099231645
00000000: 586f 5e3d 5a25 563d b942 db3b c869 5c3d
00000010: 88e0 99bc 4aeb a53a e222 9cbc c657 a03c
00000020: 80d9 983d 1a1d 2fbd 8c45 a83c 31b9 c13c
00000030: 04b5 2cbb 1347 78bc f740 c0bd c37c 0dbd
00000040: 9cc7 aa3c 2a60 1bbd 84ac 8dbb e672 13be
00000050: d8b9 9cbd 4936 e13c 1240 3b3d a2c0 a03d
00000060: d0a6 24bd 23d9 c03b f70f 3e3c 5af2 3abd
00000070: 676b 38bd 20f2 8e3c a26f 0a3b 7a06 17bd
00000080: a8f6 0b3c b599 bfbc b064 9ebd b6a6 f43b
00000090: 40bb 803d 20d0 5a3d 401b 113e 2699 553c
000000a0: bbf3 f5bb bf5d a43c 262d 963d f6bc b0bc
000000b0: cead dd3c 92e8 813c 8e1b 283c dbd7 643d
000000c0: ee02 553c 037b 9bbc 9d96 a9bd 3ea5 1e3d
000000d0: 5791 f1bc ec21 813d c2cb 9ebd 88f4 713c
000000e0: cfc8 78bd 3873 c9bc 4e56 6f3c 5ff5 503d
000000f0: 5b2d 12bc f32a 523c 7956 b63b 09c5 6a3d
00000100: 27aa bcbb ac35 60bc 8d83 9ebc d83b 57bd
00000110: b8b8 3abc 437f 433b e152 1bbd e93d ef3c
00000120: f197 6d3d 0c15 edbb ba36 b43a 114a 9f3c
00000130: 790d fd3c bed9 803d 05b0 b9bc d3b0 0b3d
00000140: 530a 09bb d9d9 58bc 0d8d 9abb 4215 dfbc
00000150: acd8 17bb 5ad7 303d 95b2 aa3c 038d 8aba
00000160: 5bd6 3c3c be9a acbb d77d 38bd 94f4 d83c
00000170: 8f5f 163d 017d 27bd 0a5f 153d 078e 1dbd
00000180: a7ce f6bc d20f 15bd 58ed e9bc 01ef a73d
00000190: fc9c 393c 2903 80bc aaa5 1abd 0b69 54bd
000001a0: 26dd 22bd efaf 0c3d 2e4d a2bc e0cb 503c
000001b0: bfd6 09bd 8cc2 8d3c c969 f93c c3e5 2f3d
000001c0: fdf0 80bc e307 8e3d c095 9abd af50 383c
000001d0: af1c 12bc 1556 90bd b839 773c f225 84bc
000001e0: 5838 a13c 1b3d 683b 6240 123d f351 12bc
000001f0: e319 093d 22d1 503c 00df ecbb a3c5 19bd
00000200: 49c4 63bc 6bee 203d 1cbc 713b b116 07bd
00000210: 70f4 c63d bd4f 57bd 5673 07bc bc4c 243d
00000220: 773f debd 8503 94bc f4ee cebc da8a 05bc
00000230: 4c6b 153d 5ff3 33bc 16f7 62bd 4912 e73b
00000240: a06d a5bc c4a4 933c da03 9c3d 35e1 69bc
00000250: b0e6 613d 5ec0 d2bb 0a23 0b3d f6eb 09bc
00000260: 21d6 d93c a123 bcbc 086a 0e3d 6cd9 d03d
00000270: a22a 2cbc 1c84 cdbd 0d5e f8bb 7a01 a43d
00000280: 6ed9 50bd a1ed 88bc dced 783c e2b0 ab3b
00000290: c4ff 05bd 4270 613d ab90 d2bd 6953 2f3d
000002a0: 01d5 153b 042e 473c 4c31 a9bd 2309 afbb
000002b0: acb7 2ebd 4233 793c 56d5 9e3c 6b15 293d
000002c0: 3a92 46bd c276 edbb a218 673d 18de b7bc
000002d0: 1181 6e3a 9898 4dbd 9efe cdbc ecba 4b3d
000002e0: f63c b0bd 9194 ae3c 76eb 47bd c909 4e3b
000002f0: cab2 1b3c 0dc5 6c3b 72da 6dbd 1ad8 2abd
00000300: 9905 233c 0f74 c83b fc8a 0fbd 6b35 623d
00000310: a9e7 d3bc 02b7 903c 12fa 2c3d b4b7 9e3c
00000320: afeb 81bc 7741 edbb 7c17 1abc 1b90 e73c
00000330: b3b9 20bd 0706 babb 9f7d 453d c9df dabb
00000340: 4a1c 4abd 154d 193d 6e92 6e3d b370 ec3c
00000350: 6b5e a5bd e88f a73c 8f4b 2abc aea8 f43c
00000360: ac25 f93c 51b7 2bbd 1622 6b3c 4f2d 60bd
00000370: b14b 863d 1301 cfbc 5545 0dbd c8eb 0b3c
00000380: 003b 063d d424 d4bc fefd 8fbc 978d be3c
00000390: 0915 ea3c a400 ac3c 76b5 49bd 706b 5cbd
000003a0: 609a 4fbd c9ac 183d f0d6 083d fe55 d3bc
000003b0: 9e86 1f3b 4f1e 0fbd e3b3 2b3d 31ce 0dbd
000003c0: 018e 2a3a 5218 e23c 5302 893d 9a30 813b
000003d0: 6e48 4dba d357 913b ae0b 3aba 1d8c 413b
000003e0: 51be cabb 1c88 a9ba 1807 92bd b8d1 d33c
000003f0: d423 353d d35d 853d efbc bdbb f639 cb3d

actor.6.bias f4 [12]
-0.03800884 -0.021309653 -0.08083346 -0.005034488 -0.19912894 -0.20855293 0.1656985 0.1978117
0.02381173 0.06110927 0.07637426 0.016706055
00000000: 28af 1bbd 9591 aebc 038c a5bd 59f8 a4bb
00000010: 75e8 4bbe e68e 55be deac 293e 268f 4a3e
00000020: d110 c33c b74d 7a3d 1c6a 9c3d 23db 883c
